MLP(
  (layers): ModuleList(
    (0): Linear(in_features=2, out_features=32, bias=True)
    (1): BatchNorm1d(32, eps=1e-05, momentum=0.1, affine=True, track_running_stats=True)
    (2): ReLU()
    (3): Linear(in_features=32, out_features=128, bias=True)
    (4): BatchNorm1d(128, eps=1e-05, momentum=0.1, affine=True, track_running_stats=True)
    (5): ReLU()
    (6): Linear(in_features=128, out_features=256, bias=True)
    (7): BatchNorm1d(256, eps=1e-05, momentum=0.1, affine=True, track_running_stats=True)
    (8): ReLU()
    (9): Linear(in_features=256, out_features=64, bias=True)
    (10): BatchNorm1d(64, eps=1e-05, momentum=0.1, affine=True, track_running_stats=True)
    (11): ReLU()
    (12): Linear(in_features=64, out_features=32, bias=True)
    (13): BatchNorm1d(32, eps=1e-05, momentum=0.1, affine=True, track_running_stats=True)
    (14): ReLU()
    (15): Linear(in_features=32, out_features=1, bias=True)
  )
)
(80000, 2)
(80000, 2) (80000,)
tensor([[-0.6710,  0.3398],
        [ 0.1758, -0.6921],
        [-0.8959, -0.1529],
        ...,
        [ 0.7969,  0.5342],
        [-0.0965,  0.7920],
        [ 0.8891, -0.7591]]) torch.Size([80000])
(20000, 2)
(20000, 2) (20000,)
tensor([[-0.1233, -0.7168],
        [-0.1453, -0.4800],
        [-0.0829, -0.6116],
        ...,
…
